inputs/cpd/model.pth (torch, 133020 bytes, 10 tensors)

layer1.0.weight f4 [16, 3, 11, 11]
-0.019707873 -0.049551435 -0.013136575 -0.0127717415 0.021896057 -0.024360297 -0.018369438 0.0007743427
-0.01696341 -0.007806977 0.03829265 -0.03147203 0.0017379983 -0.033476852 0.009869658 -0.026775202
0.023377554 0.02368385 -0.02564815 -0.019790132 -0.056323852 0.006944915 0.01579303 -0.023405543
0.028606582 -0.001281826 0.023980238 -0.032421485 -0.05288094 0.017749473 -0.024836406 -0.04756141
0.021526957 -0.034537155 0.034966752 -0.017729651 -0.0043080267 0.008055672 0.032406434 -0.025434714
-0.03838701 -0.012837947 -0.016910408 0.010047817 -0.050824273 -0.0031766738 -0.03291594 -0.027058985
-0.012022939 -0.047266103 0.008716149 0.01394824 -0.031916317 0.020844903 -0.00793955 -0.017410414
-0.014864396 -0.052355725 0.026940864 -0.029509513 -0.050466664 0.0012335939 -0.002432388 0.019615414
-0.0018267169 -0.009976097 -0.037135553 -0.00037526328 0.022145359 -0.014768357 -0.0037842835 -0.04461158
-0.04513644 -0.045717444 -0.016902912 0.018004507 -0.018480888 -0.051638525 0.041850213 -0.014626875
0.04128583 -0.015574225 0.03141891 -0.059195448 0.008363518 -0.0595441 0.021797728 0.0030668613
-0.011287612 0.03616233 -0.060863256 0.008890683 -0.021011442 -0.03152296 -0.025658017 -0.0239338
-0.05134363 0.013724832 -0.032652125 0.007997942 0.029133698 -0.036639262 -0.021946488 -0.038945645
0.0041321367 0.026860721 -0.035053696 -0.027031656 -0.059672263 -0.024732564 0.04239762 -0.03346371
0.040586583 0.036151666 0.023717439 -0.037642878 -0.030747771 -0.04032693 0.014538902 -0.016441386
0.02449734 0.04610451 0.018455043 -0.011753321 -0.04378052 -0.015598603 0.016529068 0.0097079
-0.046982963 -0.0027592932 -0.056946475 0.0030148902 0.019777047 0.041980807 0.031786956 -0.026342949
-0.014821207 0.0051044635 0.012166022 -0.05304043 0.0064905705 -0.021076132 0.02707615 0.020881629
0.0326874 -0.045433387 0.039019514 -0.021021547 0.030358523 -0.038198654 0.0014390058 -0.016981728
0.024680285 -0.029614821 -0.051022407 -0.006435047 -0.0022821121 -0.005207464 0.039090354 -0.04105943
-0.021714576 -0.051413942 0.03606798 -0.034617983 0.03803956 0.028412767 0.04066726 -0.0049193003
-0.0025819829 0.008844945 0.010648147 -4.0989427e-05 -0.057876922 0.0050658984 -0.031354588 -0.03354427
0.026293706 -0.017479768 0.002843348 0.03242874 -0.04074951 -0.03353195 -0.011116961 -0.04348765
-0.036466494 0.019313399 -0.05034321 -0.01679194 -0.028299613 -0.019048791 0.019193185 -0.007690987
0.04342439 0.032572933 -0.051718935 0.036282673 -0.044369534 -0.021208758 0.04037504 -0.031270426
0.0007576403 -0.01347551 -0.046759017 0.007839117 -0.015454241 -0.019008007 0.043501247 0.032371826
-0.019378724 -0.024113597 -0.052551035 -0.04254959 0.020239288 0.039517086 -0.014638314 -0.02441516
0.014271934 0.0046805837 0.038831096 -0.019210292 -0.018553207 0.027024996 0.029072035 0.007344835
-0.024588002 -0.023714682 -0.045979656 0.018033385 -0.045852512 0.030862007 0.025327338 0.0016630616
0.014296288 0.04369043 -0.014426081 -0.014935684 -0.022907758 -0.055947635 0.0056210374 -0.003188968
-0.018937645 0.011673824 0.00041262954 -0.05213547 -0.046259105 0.0040723053 0.029154995 -0.0308464
-0.0019441191 0.002179352 0.016693976 -0.05001396 -0.013939933 -0.031150542 0.013302534 -0.045352474
00000000: 6872 a1bc 72f6 4abd ca3a 57bc 9140 51bc
00000010: 5c5f b33c 3f8f c7bc 817b 96bc 42fd 4a3a
00000020: d9f6 8abc abd1 ffbb c1d8 1c3d d1e8 00bd
00000030: 8ccd e33a 061f 09bd 59b4 213c ab57 dbbc
00000040: 4982 bf3c a204 c23c 121c d2bc ea1e a2bc
00000050: d7b3 66bd 2b92 e33b 6260 813c fbbc bfbc
00000060: 5a58 ea3c f102 a8ba 3472 c43c 64cc 04bd
00000070: af99 58bd 5867 913c b875 cbbc c1cf 42bd
00000080: 4d59 b03c d576 0dbd 4c39 0f3d c63d 91bc
00000090: 592a 8dbb f0fb 033c 9cbc 043d 765c d0bc
000000a0: b33b 1dbd 4156 52bc b287 8abc 999f 243c
000000b0: 1d2d 50bd be2f 50bb ddd2 06bd ceaa ddbc
000000c0: dcfb 44bc 1a9a 41bd 2ece 0e3c 2987 643c
000000d0: afba 02bd eec2 aa3c e314 02bc 49a0 8ebc
000000e0: cc89 73bc f572 56bd 16b3 dc3c efbd f1bc
000000f0: 22b6 4ebd 8bb0 a13a b368 1fbb 81b0 a03c
00000100: 736e efba c972 23bc 731b 18bd fcbe c4b9
00000110: 2f6a b53c fbf6 71bc be01 78bb a2ba 36bd
00000120: fde0 38bd 3742 3bbd fa77 8abc 307e 933c
00000130: 3b65 97bc eb82 53bd 216b 2b3d 8fa5 6fbc
00000140: 551b 293d 092b 7fbc 1db1 003d ed76 72bd
00000150: 2307 093c 84e4 73bd 2691 b23c 65fd 483b
00000160: adef 38bc f41e 143d c04b 79bd 3aaa 113c
00000170: 3020 acbc 381e 01bd c330 d2bc d110 c4bc
00000180: b34d 52bd 1ede 603c 3cbe 05bd cd09 033c
00000190: cba9 ee3c 0d13 16bd 1fc9 b3bc 7885 1fbd
000001a0: e066 873b 040b dc3c 7794 0fbd 7e71 ddbc
000001b0: e76a 74bd f29b cabc 20a9 2d3d 3e11 09bd
000001c0: 1e3e 263d c513 143d 134b c23c 6b2f 1abd
000001d0: c0e2 fbbc da2d 25bd 9334 6e3c 16b0 86bc
000001e0: a5ae c83c 15d8 3c3d 082f 973c 0091 40bc
000001f0: 3453 33bd 4891 7fbc f867 873c e20d 1f3c
00000200: 3571 40bd 42d5 34bb b540 69bd 7795 453b
00000210: 7903 a23c 11f4 2b3d 0a33 023d 2bcd d7bc
00000220: a6d4 72bc 5843 a73b ff53 473c ec40 59bd
00000230: daae d43b daa7 acbc cdce dd3c f30f ab3c
00000240: 39e3 053d 5c18 3abd edd2 1f3d 6135 acbc
00000250: 70b2 f83c 3176 1cbd 069d bc3a 441d 8bbc
00000260: 4f2e ca3c c89a f2bc dffc 50bd 16dd d2bb
00000270: 7d8f 15bb 60a3 aabb 351d 203d ef2d 28bd
00000280: c4e2 b1bc 6d97 52bd 05bc 133d 96cb 0dbd
00000290: 5fcf 1b3d e4c1 e83c b692 263d 1532 a1bb
000002a0: 7c36 29bb 63ea 103c 9175 2e3c 10ec 2bb8
000002b0: 5a10 6dbd d6ff a53b ab6d 00bd b765 09bd
000002c0: e665 d73c bb31 8fbc 7757 3a3b 00d4 043d
000002d0: f5e8 26bd cc58 09bd ea23 36bc 1b20 32bd
000002e0: e45d 15bd 2237 9e3c af34 4ebd 408f 89bc
000002f0: 97d4 e7bc 360c 9cbc 073b 9d3c ad04 fcbb
00000300: c6dd 313d 326b 053d 3cd7 53bd 249d 143d
00000310: d4bc 35bd fdbd adbc 4c60 253d 6b15 00bd
00000320: 619c 463a 63c8 5cbc 6286 3fbd a46f 003c
00000330: c933 7dbc aeb6 9bbc 5d2e 323d 5298 043d
00000340: 21c0 9ebc e189 c5bc c13f 57bd 7b48 2ebd
00000350: ddcc a53c abdc 213d 8ad5 6fbc 4d02 c8bc
00000360: d4d4 693c 955f 993b 5b0d 1f3d e75e 9dbc
00000370: e5fc 97bc 8663 dd3c 7a28 ee3c f1ac f03b
00000380: c76c c9bc 4b45 c2bc 2a55 3cbd c0ba 933c
00000390: d8cf 3bbd 52d2 fc3c 477b cf3c 16fb d93a
000003a0: fa3a 6a3c bcf4 323d 5f5b 6cbc cdb4 74bc
000003b0: 0da9 bbbc 5929 65bd ae30 b83b 01fe 50bb
000003c0: 1f23 9bbc 9143 3f3c 3356 d839 018c 55bd
000003d0: 307a 3dbd f970 853b 75d6 ee3c 97b1 fcbc
000003e0: d0d1 feba 76d3 0e3b cec1 883c 70db 4cbd
000003f0: 5164 64bc 6c2f ffbc dff2 593c 84c3 39bd

layer1.0.bias f4 [16]
0.010267551 0.06169985 0.032050036 -0.036775332 0.0030397961 0.026017584 0.025710281 0.046989284
-0.004451171 -0.0371809 -0.05045412 0.044992656 -0.05940509 0.14000888 0.003773421 -0.049741343
00000000: 3b39 283c fbb8 7c3d e646 033d bba1 16bd
00000010: 5137 473b d422 d53c 5e9e d23c d677 403d
00000020: 21db 91bb 004b 18bd fba8 4ebd 384a 383d
00000030: c052 73bd 7d5e 0f3e 804b 773b 94bd 4bbd

layer2.0.weight f4 [20, 16, 5, 5]
0.045894384 0.005470245 0.0025393502 -0.049001906 -0.004840811 -0.012834653 0.04988645 -0.0151063735
-0.0059728967 -0.03787254 -0.015601787 -0.04447108 -0.03360262 -0.021350903 0.044367295 -0.011632681
-0.031959705 -0.038684394 0.029654723 -0.02659014 0.01921368 0.055501875 0.005847049 -0.040068347
-0.016806547 -0.03936025 -0.0024770806 0.0322754 -0.022667233 -0.00061594264 -0.028005593 0.014853605
0.02865174 0.017634891 -0.017648857 -0.02829583 -0.031923775 0.027233431 0.04016479 0.020242978
0.038935322 -0.017123235 -0.010060018 -0.049358327 -0.01310198 0.037203785 -0.033848163 -0.024600359
0.03138621 0.005479432 0.031001579 0.024280343 -0.010070129 0.03843706 -0.023135494 -0.0064409254
-0.00041120764 0.0054124836 0.012604759 0.023059612 0.012065815 0.030669855 -0.035810024 0.012985002
0.005686177 0.020542797 -0.04495052 0.0067475284 -0.043163884 0.05099055 0.053520296 0.041531213
-0.012846473 -0.031550046 0.051604062 0.01372968 0.030496748 -0.02559992 0.007078281 -0.0057057976
0.0022731696 -0.044730186 0.029588366 -0.028890472 -0.034597803 -0.018952139 0.036669534 -0.03950079
-0.02366487 0.02889376 0.0065605477 0.0496155 0.00046875948 -0.029773941 0.03535642 -0.010693425
-0.0046524736 0.03604208 -0.009653642 -0.017663825 -0.0013906554 0.011157544 -0.0057441792 -0.043703098
-0.018406793 0.029937178 -0.013550007 -0.016883593 0.03274125 0.03155369 0.01908943 -0.048833225
0.008892749 -0.041343026 -0.014314573 -0.013906618 -0.005676423 -0.029058103 0.0004539495 -0.026764406
-0.046342816 0.030613909 0.04943446 -0.019935379 0.044422347 0.047299992 -0.0034700024 -0.02559155
-0.02667274 0.0049503986 -0.02321233 -0.023560744 -0.02163472 -0.043017212 0.01687111 -0.037858687
-0.017552668 -0.019448033 0.021720028 -0.008976136 0.045559146 0.004068078 0.0018345171 -0.0075204396
0.03313723 -0.04201452 0.05277966 0.040762376 0.047593147 -0.030873254 -0.0375459 0.00020007476
0.010821791 -0.04023096 0.03010443 -0.0362807 -0.019615015 -0.025405416 0.046275422 0.00841028
-0.014886879 0.04590905 0.004354095 0.032909025 -0.046780284 -0.022925045 -0.0015597391 -0.045559287
0.02765976 0.0108297905 0.038818892 0.051198196 0.041982986 0.0004928552 -0.01736731 -0.0074219285
-0.03150175 -0.0048514847 0.025241818 0.021755185 0.014700262 -0.008340429 0.03846964 -0.05205927
-0.04742081 0.035888948 -0.037099045 -0.005357813 0.042008318 -0.0037049213 -0.051352967 -0.02850094
-0.027515957 0.044717453 0.011030125 -0.012875279 0.020089839 0.051445406 0.05158582 0.0059389537
0.007807844 0.024426457 0.025712369 0.020976882 -0.021391049 0.0023431769 -0.029954642 0.050154347
-0.048129432 0.043797888 0.033096932 -0.011950253 -0.02187554 -0.03325373 -0.030090433 -0.03880367
-0.04122313 -0.022609849 0.037301943 0.024708891 0.04120021 0.02826381 -0.012333915 0.049901858
0.064064085 0.01619809 0.01927897 -0.030832266 -0.02416358 0.0034816233 0.034804247 0.02892832
0.039886408 -0.04276592 0.035502926 -0.021031007 -0.04558984 -0.0045229574 0.040865757 -0.013662634
0.0104628 0.033275835 -0.008258943 -0.046209548 0.031758595 0.0021332502 0.0011379817 -0.03268629
-0.032017637 -0.027082972 0.012515248 0.013672937 -0.00066027074 0.04435353 -0.0068244147 -0.017092658
00000000: c0fb 3b3d be3f b33b 3a6b 263b 39b6 48bd
00000010: aa9f 9ebb 7048 52bc bc55 4c3d b980 77bc
00000020: 4ab8 c3bb 3d20 1bbd a39e 7fbc 4f27 36bd
00000030: e7a2 09bd 17e8 aebc 7bba 353d 0097 3ebc
00000040: 2ee8 02bd 8773 1ebd 76ee f23c 91d3 d9bc
00000050: 0266 9d3c ef55 633d 9a98 bf3b b51e 24bd
00000060: e2ad 89bc 3738 21bd 8456 22bb 3633 043d
00000070: a2b0 b9bc 3677 21ba fc6b e5bc 895c 733c
00000080: 0eb7 ea3c 0c77 903c 5694 90bc a8cc e7bc
00000090: 81c2 02bd a518 df3c d683 243d 9ad4 a53c
000000a0: a57a 1f3d 0746 8cbc c6d2 24bc f52b 4abd
000000b0: b0a9 56bc ff62 183d 5fa4 0abd b186 c9bc
000000c0: d48e 003d cf8c b33b 06f7 fd3c 92e7 c63c
000000d0: 2ffd 24bc 2e70 1d3d a686 bdbc 660e d3bb
000000e0: 5b97 d7b9 345b b13b 3184 4e3c 83e7 bc3c
000000f0: b2af 453c 593f fb3c 88ad 12bd 0cbf 543c
00000100: 1c53 ba3b 5e49 a83c 091e 38bd 5f1a dd3b
00000110: 9dcc 30bd 78db 503d 1938 5b3d a21c 2a3d
00000120: 037a 52bc 9f3a 01bd c85e 533d 74f2 603c
00000130: 51d4 f93c ecb6 d1bc edf0 e73b b3f7 babb
00000140: 75f9 143b 0037 37bd 4d63 f23c b6ab ecbc
00000150: 6db6 0dbd 8441 9bbc cb32 163d 95cb 21bd
00000160: d4dc c1bc 9bb2 ec3c ddf9 d63b 9f39 4b3d
00000170: d5c3 f539 7be8 f3bc e5d1 103d 7a33 2fbc
00000180: c773 98bb dca0 133d 4f2a 1ebc bab3 90bc
00000190: a746 b6ba 22ce 363c ab39 bcbb 0502 33bd
000001a0: d8c9 96bc d03e f53c d900 5ebc 764f 8abc
000001b0: b01b 063d 713e 013d 7061 9c3c 5905 48bd
000001c0: e5b2 113c 4e57 29bd ac87 6abc 95d8 63bc
000001d0: 4a01 babb 420b eebc 1200 ee39 0741 dbbc
000001e0: f7d1 3dbd 05ca fa3c ca7b 4a3d 854f a3bc
000001f0: 35f4 353d a3bd 413d fb68 63bb 5fa5 d1bc
00000200: ca80 dabc f436 a23b c927 bebc 7602 c1bc
00000210: 4c3b b1bc d132 30bd 4835 8a3c b611 1bbd
00000220: 9dca 8fbc 7b51 9fbc 33ee b13c a510 13bc
00000230: 3a9c 3a3d 834d 853b 2e74 f03a 056e f6bb
00000240: e7ba 073d 6b17 2cbd 7c2f 583d 73f6 263d
00000250: 08f1 423d e8e9 fcbc bbc9 19bd 29cb 5139
00000260: e24d 313c 38c9 24bd 919d f63c 129b 14bd
00000270: abaf a0bc 051f d0bc 4c8b 3d3d 45cb 093c
00000280: 19e8 73bc 210b 3c3d ccac 8e3b 9dcb 063d
00000290: af9c 3fbd 4ecd bbbc 2970 ccba 609c 3abd
000002a0: b996 e23c 6f6f 313c 8f00 1f3d 33b5 513d
000002b0: 5af6 2b3d f432 013a e445 8ebc a633 f3bb
000002c0: fb07 01bd 34f9 9ebb eec7 ce3c ee37 b23c
000002d0: 5ed9 703c 4ba6 08bc 5792 1d3d 1a3c 55bd
000002e0: 533c 42bd 4a00 133d 2bf5 17bd 9890 afbb
000002f0: ea10 2c3d 44ce 72bb 7d57 52bd ce7a e9bc
00000300: 2569 e1bc a629 373d b3b7 343c d6f2 52bc
00000310: 7293 a43c 6bb8 523d a74b 533d 8e9b c23b
00000320: f1d8 ff3b fe19 c83c bfa2 d23c b6d7 ab3c
00000330: 483c afbc fc8f 193b 7063 f5bc a56e 4d3d
00000340: 5e23 45bd 6a65 333d a690 073d feca 43bc
00000350: 5534 b3bc 1035 08bd 3680 f6bc 99f0 1ebd
00000360: 96d9 28bd 4a38 b9bc ecc9 183d 4d6a ca3c
00000370: 8dc1 283d 8189 e73c 3014 4abc e465 4c3d
00000380: 0834 833d dbb1 843c eeee 9d3c f393 fcbc
00000390: b3f2 c5bc f22b 643b e68e 0e3d 16fb ec3c
000003a0: ee5f 233d 512b 2fbd 846b 113d 3849 acbc
000003b0: 69bc 3abd 5135 94bb da62 273d 3ed9 5fbc
000003c0: 2a6c 2b3c 3e4c 083d 8550 07bc 3946 3dbd
000003d0: 4d15 023d 00ce 0b3b 5428 953a 0fe2 05bd
000003e0: ed24 03bd 1cdd ddbc c10c 4d3c 7404 603c
000003f0: 0516 2dba 0cac 353d 579f dfbb e705 8cbc

layer2.0.bias f4 [20]
-0.0040767733 0.070319146 0.053019043 0.0033196076 -0.0031150372 0.063831955 -0.03549057 -0.041829556
0.019891046 0.029801615 0.041014098 -0.040543683 -0.04490432 0.0847909 0.017779518 0.042530067
-0.026504917 -0.018697971 0.009736635 -0.015491874
00000000: 7496 85bb 7c03 903d 7f2a 593d c68d 593b
00000010: a725 4cbb 54ba 823d 8f5e 11bd 7855 2bbd
00000020: 8cf2 a23c 8422 f43c 66fe 273d 2211 26bd
00000030: 98ed 37bd daa6 ad3d 5aa6 913c 0234 2e3d
00000040: d720 d9bc 7d2c 99bc 6886 1f3c a1d1 7dbc

layer3.0.weight f4 [30, 20, 3, 3]
-0.03618003 0.05803349 0.03652868 0.015386764 0.03759393 0.017201558 0.066782 -0.056695774
-0.047489144 0.002898598 0.01354289 -0.01523829 0.02262518 0.056542862 0.05357542 0.004877229
0.059300408 0.009144653 -0.0014931706 -0.017097076 0.052742295 0.043928083 -0.03672169 0.012407402
0.040101774 0.075893134 0.0073327143 -0.037600353 0.057674333 0.026574021 0.05216017 0.027688941
0.020552699 0.07272493 -0.019459104 0.061988853 0.04727123 0.067888625 0.02620215 0.0735353
-0.009370463 0.0331967 0.011257859 -0.01425769 -0.042117726 0.048658196 0.006086943 0.028668314
-0.04283117 0.0040935283 -0.06653623 0.029348869 0.06508374 0.06983257 -0.023417262 0.0816659
-0.032762434 -0.059704144 0.008401711 0.030794432 0.009904801 0.08080059 -0.033618867 -0.01744681
0.034727883 -0.06387811 -0.048455868 -0.057380136 -0.053391103 -0.042353366 0.024621608 -0.064178646
0.0031844284 0.03193392 -0.03427366 -0.06650179 0.036031667 0.05096542 0.041057713 -0.008696301
-0.016999952 0.064726986 0.016572006 0.0536032 -0.070865676 0.00021359367 -0.052636236 0.008287202
-0.06742844 -0.04251011 0.031011365 0.07743351 0.07259335 -0.047458604 -0.038253687 0.060937993
0.080203414 0.056447238 0.05030287 0.057512783 0.020253442 -0.03090654 0.030204466 0.011290628
-0.045062117 0.00933268 -0.05094407 0.008882302 -0.04793573 -0.018190319 -0.03763539 0.019485103
-0.07137326 0.03622993 -0.05837641 -0.05567429 -0.020858094 0.056354232 0.06335321 0.03578513
-0.04171128 -0.015329666 0.06020941 0.055227097 -0.012283066 0.054904833 -0.008857466 -0.05034246
-0.062319864 -0.048310183 0.039434787 0.002472413 0.029359648 -0.011518527 -0.006858797 0.069616474
-0.023389779 -0.038333714 0.009117602 -0.017380655 0.01660122 0.057235558 -0.00016735774 0.0046107024
0.068421684 0.07095465 -0.0034529779 0.023561636 0.011083963 0.04196249 0.0071603777 -0.05492794
-0.027334917 -0.039333303 -0.04836808 -0.031464107 0.03542983 -0.04884275 -0.052250482 0.042817328
-0.00808304 -0.013323613 0.038813997 -0.011341207 0.05887684 0.0907611 0.090179555 0.0636538
0.028016198 0.06700571 0.006865031 -0.048404332 0.011565787 0.03953439 -0.025685573 0.009250339
-0.009564486 0.043928385 0.06967678 0.046102602 -0.064902216 0.0102517605 0.0018792166 0.023252198
0.0609581 0.04659039 -0.005382462 -0.06742294 0.010592461 -0.06870639 -0.040345065 -0.04236642
-0.035256177 -0.055140857 -0.070490144 -0.010430373 -0.032094322 0.07040529 -0.057515528 0.008745707
-0.040939145 0.040915243 0.044828735 -0.05397572 0.026861483 -0.04251012 -0.016522191 0.009111167
0.010162215 -0.029293198 -0.009020447 -0.05656491 0.05777844 0.0019395567 -0.060573857 0.026005104
0.052876372 -0.049917936 0.01833623 0.004329278 -0.05870213 -0.05045047 0.0069570057 -0.003346108
-0.011947217 -0.03585382 -0.035483535 -0.031250995 -0.021455597 -0.008524592 -0.041539893 0.0107711125
-0.07358279 -0.058304384 -0.02732653 -0.0069849645 -0.01966296 0.061359946 0.020994274 -0.015997166
-0.05819134 0.059797544 -0.030184243 -0.06323454 0.046835426 0.049837757 0.033479813 0.06525592
0.021819066 -0.020587783 -0.06450665 0.066995054 -0.007957951 -0.02562408 0.036718916 -0.061055858
00000000: 8331 14bd 86b4 6d3d 199f 153d c418 7c3c
00000010: 18fc 193d 48ea 8c3c 00c5 883d d439 68bd
00000020: fa83 42bd 68f6 3d3b ffe2 5d3c 05aa 79bc
00000030: 7158 b93c 7d99 673d e671 5b3d 2ad1 9f3b
00000040: fce4 723d 74d3 153c 7eb6 c3ba 2b0f 8cbc
00000050: 4e08 583d efed 333d 7c69 16bd 6a48 4b3c
00000060: c241 243d dc6d 9b3d 4447 f03b d402 1abd
00000070: ec3b 6c3d c3b1 d93c e7a5 553d ebd3 e23c
00000080: 225e a83c cff0 943d b368 9fbc 06e8 7d3d
00000090: 7a9f 413d 3109 8b3d e4a5 d63c ad99 963d
000000a0: 9286 19bc 43f9 073d e272 383c 1699 69bc
000000b0: a383 2cbd d14d 473d fb74 c73b d0d9 ea3c
000000c0: bd6f 2fbd 0123 863b 2644 88bd 0a6d f03c
000000d0: a04a 853d 6104 8f3d 8fd5 bfbc 7440 a73d
000000e0: e731 06bd 558c 74bd 54a7 093c 9b44 fc3c
000000f0: bf47 223c c87a a53d f0b3 09bd 9dec 8ebc
00000100: d33e 0e3d 87d2 82bd a979 46bd 6f07 6bbd
00000110: a1b0 5abd b97a 2dbd 41b3 c93c 1870 83bd
00000120: d8b1 503b 24cd 023d 8a62 0cbd 1732 88bd
00000130: f195 133d 1ec1 503d 222c 283d ee7a 0ebc
00000140: 7c43 8bbc 958f 843d 04c2 873c 078f 5b3d
00000150: 0622 91bd 1df8 5f39 1899 57bd 0bc7 073c
00000160: ec17 8abd 151f 2ebd 8c0b fe3c 7695 9e3d
00000170: d3ab 943d f463 42bd e6af 1cbd 1e9a 793d
00000180: b041 a43d 3835 673d 620a 4e3d 8692 6b3d
00000190: 8cea a53c b62f fdbc 5b6f f73c 54fc 383c
000001a0: 0e93 38bd 19e8 183c bbaa 50bd 1387 113c
000001b0: 4258 44bd dd03 95bc 9127 1abd 399f 9f3c
000001c0: 252c 92bd d665 143d 1a1c 6fbd b90a 64bd
000001d0: 98de aabc b2d3 663d 54bf 813d 6e93 123d
000001e0: 72d9 2abd 4829 7bbc 249e 763d cf35 623d
000001f0: ea3e 49bc e4e3 603d e81e 11bc e533 4ebd
00000200: 1d43 7fbd e6e0 45bd 5f86 213d 3508 223b
00000210: a583 f03c 34b8 3cbc c2bf e0bb 1593 8e3d
00000220: ec9b bfbc d003 1dbd ff61 153c e061 8ebc
00000230: 48ff 873c d56f 6a3d c07c 2fb9 6015 973b
00000240: ab20 8c3d ac50 913d 5b4b 62bb 5504 c13c
00000250: 8399 353c dce0 2b3d 9aa1 ea3b 1ffc 60bd
00000260: 7aed dfbc f51b 21bd 9c1d 46bd 82e0 00bd
00000270: df1e 113d 560f 48bd 9a04 56bd 3961 2f3d
00000280: ba6e 04bc 494b 5abc 6dfb 1e3d 78d0 39bc
00000290: d728 713d f5e0 b93d 0fb0 b83d ec5c 823d
000002a0: 3a82 e53c 4a3a 893d 0ef4 e03b 9f43 46bd
000002b0: 6d7e 3d3c d0ee 213d 8d6a d2bc bc8e 173c
000002c0: 5db4 1cbc 40ee 333d b3b2 8e3d 15d6 3c3d
000002d0: 74eb 84bd 00f7 273c 0c50 f63a 657b be3c
000002e0: 33af 793d 91d5 3e3d 5d5f b0bb 0a15 8abd
000002f0: 008c 2d3c f0b5 8cbd de40 25bd 6988 2dbd
00000300: c868 10bd 61db 61bd 235d 90bd 28e4 2abc
00000310: 5675 03bd a630 903d 6795 6bbd 274a 0f3c
00000320: ceaf 27bd be96 273d 569e 373d a515 5dbd
00000330: 9d0c dc3c 171f 2ebd 8c59 87bc 0147 153c
00000340: 6b7f 263c 4af8 efbc 7fca 13bc 9bb0 67bd
00000350: 16a9 6c3d b938 fe3a 4b1c 78bd a808 d53c
00000360: e594 583d c076 4cbd dd35 963c 9edc 8d3b
00000370: a571 70bd 27a5 4ebd 98f7 e33b 604a 5bbb
00000380: 43be 43bc 75db 12bd 2f57 11bd 0b01 00bd
00000390: a6c3 afbc bbaa 0bbc bc25 2abd 5279 303c
000003a0: 93b2 96bd 94d0 6ebd e3db dfbc 21e2 e4bb
000003b0: 3714 a1bc 9154 7b3d 2ffc ab3c 7d0c 83bc
000003c0: 0b5a 6ebd 45ee 743d f244 f7bc 1c81 81bd
000003d0: 81d6 3f3d ad22 4c3d 2122 093d e5a4 853d
000003e0: e6bd b23c b6a7 a8bc 101c 84bd b434 893d
000003f0: 1162 02bc 97e9 d1bc 9366 163d b515 7abd

layer3.0.bias f4 [30]
0.04254595 -0.036641285 -0.018720597 0.009816412 0.009581227 -0.03925873 -0.056857742 0.06049645
0.027339894 0.003984233 -0.06038662 -0.01647989 0.048722576 -0.04807826 -0.042362727 0.01621267
-0.09674107 -0.043598697 0.04862322 0.01988818 0.013527133 -0.07870596 -0.0060272417 -0.059098393
-0.020524066 -0.032637622 0.0155877555 0.023495987 -0.0059894407 -0.025935426
00000000: a944 2e3d 2c15 16bd f05b 99bc 04d5 203c
00000010: 94fa 1c3c c3cd 20bd aae3 68bd 20cb 773d
00000020: eaf7 df3c 2b8e 823b f657 77bd d600 87bc
00000030: 5391 473d b6ed 44bd 8a84 2dbd 6fd0 843c
00000040: 2f20 c6bd 8c94 32bd 2429 473d 89ec a23c
00000050: e8a0 5d3c 9730 a1bd 2b80 c5bb 2811 72bd
00000060: 1622 a8bc 07af 05bd c963 7f3c a87a c03c
00000070: 1243 c4bb 8876 d4bc

layer4.0.weight f4 [48, 270]
-0.0525935 -0.0023926792 -0.01351738 -0.00091645855 -0.029265001 0.001457082 -0.048939284 0.058301486
0.0021869263 -0.006649771 0.017768854 -0.039488595 -0.02087821 -0.015943045 -0.009333757 -0.00058910606
0.050412394 -0.03936302 -0.040970057 0.008681727 -0.021356009 0.045402657 0.026980275 0.034308758
0.042777337 -0.049943816 0.037742708 -0.009636331 -0.024949525 -0.05534137 -0.039043196 0.036695424
0.006936208 0.005646025 0.04865382 0.010076853 0.002477824 -0.048885502 0.040193688 -0.05183644
-0.03204554 -0.019624721 -0.0016161387 0.008165679 -0.021880107 0.024988668 -0.029306952 -0.03942172
-2.3419034e-05 0.052973643 0.01787733 0.0051348433 -0.05622125 0.0044762106 0.0057248715 0.047063183
-0.03124833 0.026338452 0.019085694 0.0772486 0.023699945 0.052816868 -0.011150969 -0.01782046
0.024524609 -0.065328404 0.05276808 -0.037638366 0.02182234 0.01542644 -0.035332166 -0.03434989
0.03466125 -0.007759888 0.005272501 -0.02437208 0.06176438 0.017690748 0.023788307 -0.0069740633
0.06555885 -0.023252778 0.067564026 0.047245946 0.06627322 -0.041524403 0.023250757 -0.012721977
0.048670202 0.06550803 0.014813331 -0.0010444103 0.030248096 0.017402438 0.015105867 0.048263114
-0.034100667 -0.026212685 0.04082221 0.03649381 0.013706378 -0.014051952 -0.046904977 0.043795098
0.072560124 0.0537517 -0.031113239 0.072839096 0.035113238 -0.02396126 0.028032634 0.040463734
-0.02354442 -0.006062969 -0.033868194 -0.02511277 -0.03746123 0.0150406575 -0.049420156 0.053779297
0.051376548 0.0096246805 -0.050533738 -0.052770186 0.05297602 -0.049785297 0.006486679 0.0006763657
0.043609373 0.060148083 0.044459995 0.0037297586 -0.033194948 -0.023200365 0.06758559 -0.0154508855
0.017827772 0.046807926 0.00048465532 -0.018345414 0.03472241 0.04656811 -0.04396877 -0.0037759296
-0.0014577192 -0.009590653 0.04256905 -0.010296511 -0.037154205 0.05707325 0.057928152 0.027347509
0.04865933 0.04900077 -0.0034615442 0.050448336 -0.039080705 0.05994541 -0.052679125 -0.024839856
-0.05111571 0.01642089 0.03805768 -0.052591875 0.033873554 -0.026277987 0.016644021 -0.035071235
0.030466964 -0.027122615 -0.010537478 0.035807524 0.04508123 -0.008713278 0.03771026 -0.058098666
-0.0518652 -0.015084467 -0.019875854 -0.019261822 -0.06220569 0.053765614 0.04054084 0.0013203876
0.021988537 -0.027353821 0.028469488 -0.008780596 -0.05090892 0.05565664 -0.04557897 3.763271e-05
-0.022197248 0.045726046 0.042918365 0.04650703 0.015018896 0.07005882 -0.012061221 0.04517999
-0.032562904 0.046627376 0.032982226 -0.03424781 0.0042457497 -0.034925587 0.05895712 0.0036749316
0.028720923 0.054738156 0.0024669932 -0.043699037 0.06196368 -0.010766971 0.0396862 -0.01851477
0.0012155907 -0.0013284177 0.016359001 -0.03883341 -0.004305872 -0.002897498 -0.053089313 0.039679397
-0.049741313 0.04015541 0.043711536 0.031776857 0.036129594 0.017764235 -0.0003419565 0.03658451
-0.0013570465 -0.05910142 0.02694911 0.018204212 -0.018561866 0.009334487 -0.014546242 -0.045348767
-0.04999954 -0.018482158 -0.042897906 0.021696994 -0.0294552 0.03759977 0.037518937 -0.028392462
0.015490051 0.009732979 -0.03611705 -0.03012465 -0.024604693 -0.014005422 -0.00825197 0.05276448
00000000: 486c 57bd 7fce 1cbb 0078 5dbc 7e3e 70ba
00000010: 28bd efbc 8ffb be3a 8f74 48bd 8acd 6e3d
00000020: 8952 0f3b 52e6 d9bb fd8f 913c cbbe 21bd
00000030: c808 abbc fd9a 82bc 9dec 18bc 3d6e 1aba
00000040: 3a7d 4e3d 1e3b 21bd 38d0 27bd cd3d 0e3c
00000050: ccf2 aebc 23f8 393d bd05 dd3c 5787 0c3d
00000060: 4a37 2f3d e391 4cbd 1998 1a3d b4e1 1dbc
00000070: f262 ccbc a2ad 62bd c2eb 1fbd f14d 163d
00000080: 2149 e33b 4a02 b93b 3a49 473d 6319 253c
00000090: fd62 223b 2a3c 48bd 23a2 243d 7252 54bd
000000a0: 2f42 03bd 06c4 a0bc 9ed4 d3ba 57c9 053c
000000b0: e93d b3bc 09b5 cc3c 2215 f0bc ab78 21bd
000000c0: fe73 c4b7 e4fa 583d 7a73 923c 3042 a83b
000000d0: 4148 66bd 2dad 923b b497 bb3b 53c5 403d
000000e0: 7ffc ffbc bdc3 d73c 9a59 9c3c 8434 9e3d
000000f0: 6326 c23c 8056 583d 8eb2 36bc 37fc 91bc
00000100: d5e7 c83c e6ca 85bd 5823 583d b02a 1abd
00000110: c4c4 b23c 2ebf 7c3c 76b8 10bd 78b2 0cbd
00000120: f4f8 0d3d a946 febb f2c4 ac3b f5a7 c7bc
00000130: a6fc 7c3d 30ec 903c b2df c23c af86 e4bb
00000140: b843 863d 9c7c bebc 025f 8a3d f784 413d
00000150: 41ba 873d 7e15 2abd 5f78 be3c d76f 50bc
00000160: 685a 473d 1329 863d 9db3 723c 98e4 88ba
00000170: dbca f73c 8f8f 8e3c 997e 773c 8baf 453d
00000180: 24ad 0bbd fcbb d6bc 3135 273d 897a 153d
00000190: b790 603c 293a 66bc 6f1f 40bd 7d62 333d
000001a0: 679a 943d be2a 5c3d 31e1 febc aa2c 953d
000001b0: e6d2 0f3d 684a c4bc b2a4 e53c 4dbd 253d
000001c0: 3ae0 c0bc dfab c6bb 60b9 0abd 4cb9 cdbc
000001d0: f270 19bd 176d 763c ca6c 4abd ae47 5c3d
000001e0: 3770 523d d6b0 1d3c 77fc 4ebd 8d25 58bd
000001f0: 62fd 583d abeb 4bbd 358e d43b 224e 313a
00000200: be9f 323d d65d 763d af1b 363d f76e 743b
00000210: 6df7 07bd b10e bebc 506a 8a3d b625 7dbc
00000220: 8c0b 923c abb9 3f3d 5619 fe39 1f49 96bc
00000230: 1639 0e3d 34be 3e3d 9918 34bd 9675 77bb
00000240: f110 bfba 1d22 1dbc e25c 2e3d b3b2 28bc
00000250: 022f 18bd a4c5 693d 1246 6d3d e207 e03c
00000260: 014f 473d 08b5 483d 13db 62bb eaa2 4e3d
00000270: 1713 20bd 5189 753d 11c6 57bd f47c cbbc
00000280: b55e 51bd 1a85 863c 5fe2 1b3d 946a 57bd
00000290: ffbe 0a3d ef44 d7bc 0b59 883c dba6 0fbd
000002a0: db95 f93c 3f30 debc 63a5 2cbc e9aa 123d
000002b0: 19a7 383d 23c2 0ebc 1376 1a3d def8 6dbd
000002c0: 9b70 54bd d724 77bc b0d2 a2bc f8ca 9dbc
000002d0: 65cb 7ebd 5539 5c3d 270e 263d db10 ad3a
000002e0: 4e21 b43c 1f15 e0bc d838 e93c 7ddc 0fbc
000002f0: df85 50bd 38f8 633d 04b1 3abd d1d7 1d38
00000300: 01d7 b5bc 3c4b 3b3d 2bcb 2f3d 287e 3e3d
00000310: d111 763c 007b 8f3d 6d9c 45bc a70e 393d
00000320: ae60 05bd 59fc 3e3d 5f18 073d 6e47 0cbd
00000330: ee1f 8b3b 220e 0fbd 057d 713d 1fd7 703b
00000340: 2448 eb3c 1e35 603d 47ad 213b c3fd 32bd
00000350: a1cd 7d3d f367 30bc ff8d 223d 49ac 97bc
00000360: 7554 9f3a 4d1e aeba 5003 863c c80f 1fbd
00000370: 4618 8dbb f3e3 3dbb 2e74 59bd dd86 223d
00000380: 8cbd 4bbd 007a 243d de0a 333d 7328 023d
00000390: a0fc 133d 4d86 913c a048 b3b9 a4d9 153d
000003a0: edde b1ba 5514 72bd 61c4 dc3c 0021 953c
000003b0: 0e0f 98bc adef 183c 5c53 6ebc a1bf 39bd
000003c0: 51cc 4cbd e567 97bc b7b5 2fbd e5bd b13c
000003d0: 084c f1bc 3702 1a3d 75ad 193d 4f97 e8bc
000003e0: fcc9 7d3c 1377 1f3c 79ef 13bd f8c7 f6bc
000003f0: c88f c9bc ff76 65bc 4533 07bc 911f 583d

layer4.0.bias f4 [48]
0.017390834 -0.011810579 0.061185077 -0.0025981977 0.06468527 -0.04918864 0.049485784 -0.0026929274
0.0458343 -0.015750967 -0.0022135396 0.025055485 -0.010865444 0.12841588 -0.052659623 0.035175934
-0.018434646 0.009518704 0.036572177 -0.03907467 0.008707973 0.019909985 0.086094715 -0.05377792
0.050653625 0.04984602 0.013296564 0.06494392 0.07702062 0.06891183 -0.04154211 -0.053252313
0.0325481 0.028632784 0.075565614 0.07508184 -0.020847887 0.010580995 -0.00572579 -0.041641742
0.03810966 -0.051888563 -0.0014679471 0.04447027 -0.031153943 -0.003793896 0.0005456555 0.053100556
00000000: 3977 8e3c 2981 41bc 349d 7a3d 8646 2abb
00000010: b679 843d 077a 49bd 9bb1 4a3d d37b 30bb
00000020: bfbc 3b3d 2c08 81bc 0811 11bb 2941 cd3c
00000030: fa04 32bc 747f 033e 9eb1 57bd a414 103d
00000040: 4104 97bc 57f4 1b3c b5cc 153d c30c 20bd
00000050: e3ab 0e3c 441a a33c 6d52 b03d 3c46 5cbd
00000060: 2d7a 4f3d 572b 4c3d d5d9 593c 5101 853d
00000070: fdbc 9d3d a521 8d3d 0f28 2abd 191f 5abd
00000080: 2851 053d 4d8f ea3c 25c2 9a3d 82c4 993d
00000090: 30c9 aabc e95b 2d3c 689f bbbb 8890 2abd
000000a0: e018 1c3d 1a89 54bd 2268 c0ba 7526 363d
000000b0: 8e36 ffbc 03a3 78bb 520a 0f3a f87f 593d

layer5.0.weight f4 [2, 48]
-0.18661837 0.07085724 0.020363469 -0.1460416 0.040252633 -0.043863036 0.15204717 -0.04658978
0.059671707 0.131747 -0.042548314 -0.035901833 0.029237539 0.22284602 -0.053288043 -0.05347278
0.040195983 -0.15217724 -0.044024315 -0.1373735 -0.13303868 0.12987629 0.1718453 0.02698558
0.02706203 0.13048346 0.080137126 0.07717308 0.11877174 0.07515972 0.10775534 -0.13499537
0.11187002 0.048265245 0.17415027 -0.022298796 -0.028041083 0.07660422 -0.11995498 0.14293069
-0.008738787 -0.118567444 -0.1493036 0.10626094 -0.00215326 -0.0008416773 -0.10643139 0.1277756
0.15215637 0.11707442 -0.1400941 0.21707962 -0.022146007 0.11395206 -0.051719032 0.114656456
-0.14392814 0.022597726 0.10912851 0.15432964 0.12914017 -0.21131252 -0.10051311 -0.056004144
-0.15776637 0.16674477 0.037470367 0.21973844 0.09386009 0.08438429 -0.017642068 0.16226608
-0.094720475 -0.008353748 -0.026242962 -0.05008423 -0.119947724 -0.12980814 0.08558975 0.102001235
-0.08058594 -0.049657747 -0.12981726 -0.108794786 -0.062426414 0.15793623 0.20938498 0.024497312
0.03989534 0.1651021 -0.107411936 0.007385743 -0.030029962 0.013439803 -0.029842151 -0.12561521
00000000: e318 3fbe 9a1d 913d 4ad1 a63c ee8b 15be
00000010: f2df 243d baa9 33bd 41b2 1b3e edd4 3ebd
00000020: 526a 743d b0e8 063e 2447 2ebd cd0d 13bd
00000030: 9083 ef3c bf31 643e 9044 5abd 4606 5bbd
00000040: 8ba4 243d 5ad4 1bbe d752 34bd a4ab 0cbe
00000050: 4b3b 08be 4afe 043e 37f8 2f3e dd10 dd3c
00000060: 31b1 dd3c 759d 053e ef1e a43d eb0c 9e3d
00000070: 993e f33d 57ed 993d d5ae dc3d 3a3c 0abe
00000080: 1c1c e53d c7b1 453d 7354 323e f7ab b6bc
00000090: 6ab6 e5bc ace2 9c3d f5aa f5bd 6c5c 123e
000000a0: 212d 0fbc 7dd3 f2bd 0be3 18be 569f d93d
000000b0: b51d 0dbb 02a4 5cba b3f8 d9bd 9bd7 023e
000000c0: e1ce 1b3e b7c4 ef3d d474 0fbe 1f4a 5e3e
000000d0: 8b6b b5bc b35f e93d 56d7 53bd 01d1 ea3d
000000e0: e661 13be de1e b93c c57e df3d 9708 1e3e
000000f0: 523d 043e 4f62 58be d1d9 cdbd 9a64 65bd
00000100: 828d 21be 24bf 2a3e 877a 193d 1d03 613e
00000110: b839 c03d acd1 ac3d 1986 90bc 1429 263e
00000120: cffc c1bd 29de 08bc 7bfb d6bc 1f25 4dbd
00000130: 27a7 f5bd 6dec 04be ae49 af3d 06e6 d03d
00000140: 3e0a a5bd ec65 4bbd d1ee 04be cdcf debd
00000150: d7b2 7fbd 09ba 213e 0469 563e 96ae c83c
00000160: 4c69 233d 8610 293e cafa dbbd 1a04 f23b
00000170: 6501 f6bc 9f32 5c3c 8777 f4bc 46a1 00be

layer5.0.bias f4 [2]
0.2661414 -0.16677225
00000000: b043 883e 58c6 2abe
